yscontrol/yscontrol/checkpoint_max.pth (torch, 112354 bytes, 9 tensors)

layer.1.weight f4 [128, 5]
00000000: 9f44 fb3d 5f40 70be 27df ad3f d68c cb3d
00000010: bd2e 903e d39e 1a3f fd7c eebc b8fc 5d3e
00000020: cb1b 98be 07b8 4b3e f8cc bbbf 719c 253e
00000030: 5d13 243f 8476 4ec0 dfb9 223f 66c8 e93f
00000040: 7cc2 f7bd 9713 0d3f aed0 2640 d5f8 613f
00000050: 7b2d 1b3e d43b dabe 61de 063f aa03 1d3e
00000060: 93a8 df3e 6e5c 68bf 033d 83be fd6e fcbf
00000070: 61e0 8c3e bba3 e2bf 3e19 fabe 24e6 ddbf
00000080: fa8d fdbf f0a5 70be f89e f5bf 0f09 2e3f
00000090: 8133 0abe 803f 213f 1b5b efbe d83e 9ebe
000000a0: 53e3 643e b31e 2bbe f959 143f ea58 193f
000000b0: c7fc adbd fbee 1bbf 9f14 8f3e 5cad 943e
000000c0: 1ee1 c0bf 2b78 113f 469d f33e b9dd 893d
000000d0: 8284 a13c d88f 913e 8ed1 933e 9b5f 29be
000000e0: 6be6 bf3e dbe7 fcbe 0ad4 6c3e 1f5f 85bf
000000f0: a95a f9bc 596a 7cbf abb3 b7be d73e 573e
00000100: ccb4 263e 7be2 283f b0d7 283f 9311 103f
00000110: 6105 e1be 6f33 51bf 70eb 03bf b19c b83e
00000120: 1662 4cbf 3214 c43d eaa2 073f c977 6b3e
00000130: 3369 113f 049e 53bb 61d6 aabe 67eb 7c3f
00000140: 798a 633e 2ab7 86be b1cf 2cbe 3906 103d
00000150: 4746 893f a3a9 0c3f 72b6 173f 78cd 083f
00000160: 4002 8e3f 1427 b43f 9e43 82bf a68d 2f3f
00000170: b55b fcbc 7557 a5c0 0903 483f 9d7b d7be
00000180: 6bd5 2a3f de42 93be 1eff acbe f2a4 edbd
00000190: 0485 b7be 3b28 163f 4a1f 3bbf cf73 633e
000001a0: 585d 47c0 9cbd 433f 585b c13e 6d90 093f
000001b0: 9b91 1abf 003c 70bf 1f56 fabe f02e 2c40
000001c0: 8dac 4c40 adca b93f 9f1c 1440 e090 713d
000001d0: f297 273f a051 893d 67f6 a5be 261d 353f
000001e0: 80a4 a9bf 9e36 243f 09c0 7ebf 5109 87c0
000001f0: d562 f13e c085 3abe 821c cfbe ae68 25be
00000200: 0e3e 8bbf 60fe b6bd a8cc 403f 237e 14be
00000210: b1d0 853f 5ee9 2e3f 509d 8a3e e1d4 313e
00000220: 3a0a 98bd 062c b7be 5032 8e3e c46a 28c0
00000230: 1673 b53f 6f1f 61be 540b 773f 2bc7 2840
00000240: db8a 643f af5f 0a3e 0e8c 613f 876b 0f3f
00000250: 0bd0 5b3e ec2a aebd ba56 2e3d d3ad 4a3d
00000260: 3d8c cf3e 5f70 fc3e 371f 873d 7f6a 133e
00000270: 6c8c 113f 7e2f 373f 5943 5dbd cff6 103f
00000280: fc47 c7be 5d0d 06bf 0b05 68bf c443 323f
00000290: 9a2c dcbf 5ded 0c3d 0794 e9bd f714 093f
000002a0: fdbf 123f 2e8c a33d 7d98 d93d c089 0bbf
000002b0: eb3c 23bf f4f2 f23e e85d 93bf 58ee 573f
000002c0: b5e5 93b9 9b21 483f ac35 92bf f154 57bd
000002d0: 09f4 a4be 687d a7bc 1783 e7bf 5341 b7ba
000002e0: a2ef debf 8c51 083f af73 963e f926 973e
000002f0: 0724 7abe fecd 0cc0 40e3 e4bd d115 1d3f
00000300: a574 4d3d 2ef0 6c3d d56c 463f ab25 a3bf
00000310: f6ce 9dbf 070d 2140 9ad6 5ac0 0bd3 163e
00000320: 7fe7 913f 1697 be3f 1bb3 983e 76a5 1c40
00000330: 7afc a63f 15f1 a7be 1202 58bd 3274 96be
00000340: dd86 f63e 9d84 cfbd 559c 053d 50cf 413f
00000350: 74ea b63d 170c 9c3f d97f c5be c409 7e3d
00000360: 8ab1 953e b59f 823e 79c1 d83d 2416 293f
00000370: 5f99 2abd 6785 80bf fb69 53bf aea6 2d3f
00000380: 04f2 8dbf d901 bbbe 4957 e83e 44a7 82bf
00000390: b715 4c3f 5546 95be 67b0 7a3d b98a 5fbf
000003a0: 4133 833e e303 52bf 6130 ad3e 9fa4 d43e
000003b0: ba70 533f 0a7a d93d 4098 343f df0c 223f
000003c0: a418 19bd a684 0ebf 6663 053e 70e5 57be
000003d0: 3b56 a53e 3030 7d3e 3ce7 ee3e f085 5ebe
000003e0: edba 043f 7e20 78c0 1d42 a23d a245 1940
000003f0: b10c 6f3f ae1f 5d3f a174 cd3f 1390 65bf
0.12268948 -0.23462056 1.3583726 0.09938972 0.28160658 0.60398597 -0.029112333 0.21678436
-0.29708704 0.1989442 -1.4671926 0.16172959 0.64092046 -3.2259836 0.63564867 1.8264282
-0.12097642 0.55108017 2.6064868 0.8827031 0.15154068 -0.4262377 0.52683073 0.15333429
0.436833 -0.90766037 -0.25632486 -1.9721371 0.27514938 -1.7706217 -0.48847383 -1.7335858
-1.9808953 -0.235008 -1.9189138 0.6798257 -0.1349621 0.6298752 -0.46749195 -0.3090732
0.22352342 -0.1671093 0.5794979 0.599013 -0.08495479 -0.6091153 0.2794542 0.29038513
-1.50687 0.56823987 0.47580928 0.06731743 0.019716505 0.28430057 0.28870815 -0.16540377
0.37480482 -0.49395642 0.23127761 -1.0419654 -0.030438738 -0.98599774 -0.35879263 0.21020065
0.16279906 0.6597058 0.65954113 0.56276816 -0.43949416 -0.81719106 -0.51531124 0.36057046
-0.7983717 0.095741645 0.5298296 0.22994913 0.56801146 -0.003229023 -0.33366683 0.98796695
0.22220792 -0.26311618 -0.16876103 0.035162184 1.0724572 0.54946345 0.59262764 0.5343852
1.1094437 1.4074426 -1.0176885 0.68575513 -0.030805448 -5.166926 0.7812963 -0.42086497
0.667319 -0.28761953 -0.3378839 -0.116037264 -0.3584367 0.58655137 -0.7309462 0.22212146
-3.1150723 0.76461196 0.37765002 0.53736 -0.60378426 -0.9384155 -0.4889383 2.6903648
3.1980317 1.4514977 2.314247 0.058976054 0.65466225 0.06705022 -0.32414553 0.707476
-1.3253326 0.6414584 -0.9951177 -4.2198873 0.47145715 -0.18215084 -0.40451437 -0.16153213
-1.0878313 -0.08935237 0.7531228 -0.14501242 1.0454313 0.6832484 0.27073145 0.17366363
-0.074238256 -0.35775775 0.2777276 -2.6315165 1.4175746 -0.21984647 0.9650166 2.6371562
0.89274377 0.13513063 0.8810433 0.5602345 0.21466081 -0.085042804 0.042563178 0.049482178
0.4053668 0.49304482 0.06597751 0.14396094 0.5685489 0.7155684 -0.054019306 0.566266
-0.38922107 -0.5236414 -0.90632695 0.6963465 -1.7201111 0.034406055 -0.11405187 0.53547615
0.573242 0.079857215 0.10624788 -0.54507065 -0.6376483 0.47450984 -1.1513033 0.8434806
-0.0002820917 0.7817628 -1.1422629 -0.05257124 -0.32217434 -0.02044554 -1.808688 -0.001398126
-1.741688 0.5324943 0.29385135 0.2952192 -0.24427806 -2.2000728 -0.11176157 0.61361414
0.05016007 0.05784624 0.77509815 -1.274587 -1.2328784 2.5164201 -3.4193482 0.14728944
1.1398772 1.4889858 0.29824147 2.447599 1.30458 -0.32801118 -0.05273635 -0.29385525
0.48149768 -0.10132716 0.032619793 0.7570696 0.08931437 1.219119 -0.38574103 0.062021032
0.29237014 0.25512472 0.10583777 0.6604941 -0.041650172 -1.0040711 -0.8258359 0.6783246
-1.1089482 -0.36524847 0.45379093 -1.0207295 0.79720634 -0.29155222 0.061203387 -0.8732105
0.2562504 -0.8203718 0.33825973 0.41531846 0.8259388 0.1061898 0.70544815 0.6330089
-0.037377015 -0.55671155 0.13026199 -0.21083617 0.3229235 0.24725413 0.46660793 -0.2173078
0.51847726 -3.8769832 0.07922766 2.394875 0.9337874 0.86376464 1.6051217 -0.89672965

layer.3.weight f4 [64, 128]
00000000: 4177 ccbd dae3 1a3f 4168 2a3d 7416 3b3e
00000010: c14d 5fbe 8a81 a6bd 9565 843d 4c04 ac3f
00000020: 5447 05bf 7875 07be 33ee 03c0 9b38 9d3d
00000030: 61e1 afbc 4dfa ee3e 8d63 0e3d ea6b debe
00000040: 0153 a33f c2ab dfbc 8e5b 5fbf a337 81bc
00000050: ecae 783d 3c38 083f 2498 ecbd d4fa a3be
00000060: 75e9 e7bc bd98 04bd 834e 9fbe 7bee abbd
00000070: 73c2 073e 50c2 a2bb 4cb6 37bf 6432 8cbd
00000080: e933 1f3d 02d4 f3be 648d 263d fc40 a740
00000090: f192 2bbd 8a31 0dbe d782 33bf ef2c 84bf
000000a0: cbb6 3b3e 6f8b 0dbd e69b 1e3e b740 48bf
000000b0: 440d acbd 6bc7 c03e 0d08 88bd 29f4 3bbe
000000c0: 6244 36bd 41b5 d63e e4f6 b63e dfc5 f63f
000000d0: da0f 94bd 6cf0 d53d 2ba2 0f3f 6dee d3bf
000000e0: 4fbe 0c3e 95bf a43e 0847 2a3d 214b b2bd
000000f0: 0c03 dc3e 49f5 013c 3b22 8ebd b137 b23c
00000100: 7a67 b23c 03d7 f53f 5806 ac3f 264c 363d
00000110: f603 1fbc 8339 a43d 5cae d8bc c59b 5cbe
00000120: 69da 2b3f cc51 17bd de7f 5f3d 8827 023f
00000130: b258 113f cdab e6bd 5d6c 0b3d 7bff b2bc
00000140: e4a3 a2be 366d 4ebe 6008 103f 5020 ab3e
00000150: 3a14 203e ba2e fa3c 8e6b c83f 0c2d 3f3d
00000160: 7eb5 c43c eed2 bfbe a364 8f3d 0591 4fbf
00000170: 310a 6b3b 48aa 743d 5006 cb3f 6749 c73e
00000180: 9505 37bf 779e a7be 8a53 23bd 2ca8 9c3d
00000190: e083 b4bd 5050 e53e 5c9f dc3c eac6 51bf
000001a0: b39f b5bd ac3a 08be edff c6bc 680a ba3f
000001b0: 4167 05bf 1f06 6ebd 41b9 f13f 3488 e73d
000001c0: 8738 6f3c b275 53be 96ff 213e 7849 753e
000001d0: c084 373c 8d3d 8e3d 77eb ed3d 9e82 333f
000001e0: e996 0abf c7ba 603d 14d1 83bf 17a7 b3be
000001f0: b01b 1d40 96df acbd 5510 a83e 1c09 883f
00000200: fed1 c8be f268 67bf c9a5 6abd 393d 41be
00000210: f958 833e 9bf4 52bd caa5 b2bc e2ad d5c0
00000220: d13a f93d 7d8c 43bc 0887 333e 695d 4bbd
00000230: 185f a0bd 732a f2be db1f 1a3c a253 cebe
00000240: df53 49bf a1d6 0c3d a61f 0c3f a6df f6bc
00000250: eff2 843d 6c61 9cbf 63ca 643e cdf8 9dbe
00000260: 0419 b23b 3d52 9e3d 4cf2 bc3e 1265 893d
00000270: 14b3 97be de3e 32be efda ce3d 7021 893d
00000280: 63fe bcbc e467 903d ce09 febc f76b 17c1
00000290: d465 1bbd 444a b2bf a6dd 1fbe c38f b73e
000002a0: 6647 35be 9969 2b3d 9c66 06be 8ac9 823e
000002b0: 0176 88bd 7087 9ebf 991b 553d 43d4 3bbe
000002c0: 01e9 72bc 3a7a 7fbe 3535 ff3d 4801 d6c0
000002d0: ca9d 8d3d e8d5 8abe 723d f6c0 3d6b 6cbd
000002e0: 9cd8 e0be 678f 13c0 945a 9c3d 2974 d03e
000002f0: af52 a9bf f53a 86bd 3283 61bb b968 15bf
00000300: 7178 933e 65c2 ebbf b6cf dcc0 186f 213c
00000310: 8b84 8ebd 2b00 613d 9ecc d73c f16f 16be
00000320: 09e1 6ec0 2032 42bd 5a29 1cbc 40c8 44bf
00000330: cc4d d3c0 8d74 06bd 7442 b8bf 3cea 003c
00000340: 1ecd 8a3a e953 b1bd 0322 5e3e aa0c a9be
00000350: 0fc8 44be 3ad9 6e3e 6e44 2dc0 6413 edc0
00000360: f47e 8e3d b59f 00bd 216a abbd a9e8 653d
00000370: 6cf3 0bbc ca5c 19bd df78 bec0 bc93 15bf
00000380: 3d16 933e 95a9 7b3e 733a dabc 3459 e53e
00000390: b7fb a63c b4e7 8dbd eda1 b5b9 0b81 ab3b
000003a0: 2f4a e3bc 4702 223d c93d a73d f63a 9abf
000003b0: 3c30 af3d 3d0c a9bc 7ba0 ccc0 057a 1e3e
000003c0: 59b4 81bd b414 d43d ff49 383e f3d5 433d
000003d0: 7707 adbd 1d1b b93b 223d 81bb 65e0 66bf
000003e0: 996c b23e 6529 a7c0 6948 7c3d 0f5d e23e
000003f0: d8f7 d6c0 bb94 8a3d 38aa 873d afaf 6bbf
-0.099836834 0.60503924 0.04160333 0.18270284 -0.21807005 -0.08130176 0.06464688 1.3438811
-0.52061963 -0.13228405 -2.0614135 0.07676812 -0.021469774 0.4667534 0.034762908 -0.43441707
1.2759706 -0.02730358 -0.87249076 -0.0157736 0.060713693 0.53210807 -0.11552456 -0.32027304
-0.028309563 -0.032372225 -0.31114587 -0.08395096 0.1325777 -0.0049670115 -0.7176254 -0.06845549
0.038867865 -0.47622687 0.040662184 5.2266827 -0.04188818 -0.13788429 -0.7012152 -1.0326213
0.18331449 -0.034556802 0.15489158 -0.78223747 -0.08400968 0.37652144 -0.066421606 -0.18354858
-0.04449881 0.4193516 0.35735238 1.9279135 -0.07229586 0.104462475 0.56106824 -1.6557137
0.13744472 0.32177415 0.041571647 -0.08705736 0.42971075 0.007932016 -0.06940123 0.021755071
0.021777857 1.9206241 1.3439436 0.044506215 -0.009705534 0.08018782 -0.026450329 -0.21543796
0.6713014 -0.036943242 0.054565303 0.5084157 0.56775963 -0.11263237 0.03403889 -0.021850338
-0.31765664 -0.20158848 0.5626278 0.3342309 0.15632716 0.03053986 1.5657823 0.04667382
0.024012323 -0.37465614 0.07001617 -0.8108066 0.003586423 0.059732705 1.5861301 0.3892319
-0.7149289 -0.32738087 -0.03987459 0.07649264 -0.08814216 0.44787836 0.026931457 -0.81944144
-0.08868351 -0.13303632 -0.024291957 1.4534426 -0.5211068 -0.058111306 1.888466 0.113052756
0.0146008795 -0.20650366 0.15820155 0.23953807 0.011201084 0.06945334 0.11617177 0.7012118
-0.5413652 0.054865625 -1.029818 -0.35088417 2.454815 -0.08441083 0.3282496 1.062778
-0.3922271 -0.9039451 -0.05728701 -0.18871011 0.25653818 -0.051502805 -0.02180757 -6.677476
0.121694215 -0.0119353505 0.17531979 -0.04964963 -0.07830638 -0.4729801 0.009407009 -0.40298182
-0.786436 0.034384374 0.5473579 -0.03013594 0.064916484 -1.2217231 0.2234283 -0.30853882
0.005435111 0.077305295 0.36903608 0.06708731 -0.29628813 -0.17406794 0.10100352 0.06695831
-0.02307052 0.070510656 -0.031010535 -9.463859 -0.037938908 -1.3928914 -0.15611896 0.3585187
-0.17703018 0.041848753 -0.1312508 0.25544387 -0.066631325 -1.2385082 0.052028272 -0.1834269
-0.01482606 -0.2494897 0.1246132 -6.6876564 0.069148615 -0.27116323 -7.6950006 -0.057719458
-0.4391526 -2.3056276 0.07634464 0.40713623 -1.3228358 -0.06554214 -0.0034410474 -0.5836292
0.28802827 -1.84187 -6.9003553 0.009853147 -0.06958874 0.0549318 0.026342686 -0.1469114
-3.732485 -0.047411084 -0.009531343 -0.7686806 -6.6032467 -0.032825995 -1.439528 0.007868346
0.0010589694 -0.08658583 0.21692662 -0.33017474 -0.19216941 0.23325053 -2.7073016 -7.408617
0.06957808 -0.03140231 -0.08369852 0.056130085 -0.008541923 -0.037442006 -5.952255 -0.5842855
0.28727904 0.24576409 -0.026639199 0.4479462 0.020383699 -0.069289595 -0.00034643654 0.005233889
-0.027745334 0.039552953 0.081660815 -1.2049243 0.08554122 -0.020635718 -6.39459 0.15476234
-0.06333227 0.10355511 0.17996977 0.04781146 -0.084486894 0.005648984 -0.003944055 -0.9018615
0.34848478 -5.223803 0.061592493 0.44211623 -6.7177544 0.06766649 0.066242635 -0.92064947

layer.5.weight f4 [2, 64]
00000000: f2fe b23e 016b e3bf 3adf 1040 502e e93f
00000010: bd43 8cbf d240 09c0 529f 88bd 2730 fcbf
00000020: e7c8 8cbf be35 b5bd f2f1 89bd f23b 96bd
00000030: d866 a3bd c511 a2bf 550b a8be b954 cabf
00000040: 137c 8a3e 972c debf b19e e83f e41d c3be
00000050: 625b b4bf 01ae 8ebf 6cbb 06c0 1fe2 3340
00000060: 17e1 dbbf 702d a8bd 1a8b c4bf e01d 78bd
00000070: 6619 e83e da17 7c40 2c43 98bd e43c d7bf
00000080: 31a8 2f3f 9446 e73e 6426 91bd 4eec 303e
00000090: d8ed 8540 36e5 d2bd 349c 0740 58bc 94bf
000000a0: 9850 c1be 7a9e e1be 5014 c73e 5f7b a7bf
000000b0: 6b8f 99bf fda1 5d40 5572 da3c cb6b e03e
000000c0: 6ac1 fabf 583d c3bf e6cf b03e cffd c93e
000000d0: dcd6 03c0 c011 4dbd b990 633e bd55 943e
000000e0: 4151 7ebf 0d7a 0240 1b17 25bd 360d 103e
000000f0: c822 ddbf 8cd0 b93e 33c0 9c3e 3987 94bf
00000100: 3b3b 47c0 019e a13f db8e 6ac0 208d bdbf
00000110: fd75 ca3e 8512 813f 08cc 5abd 9859 933e
00000120: d270 9f3c 40cd 24bd d076 f0bc 94ca 94bd
00000130: b8a7 ecbd 732e 573e f359 8840 7373 673f
00000140: 3106 be3e 618c 9a3f 8834 4ac0 f976 493f
00000150: 3a99 c33e eefb 463f 91df 043d 7db7 49c0
00000160: 00f5 7f3f 38d8 fcbd 87c8 593f dcbf d6bd
00000170: 5f25 ae3e a921 82c0 dcd6 f6bd da73 b33e
00000180: 73d8 46c0 94b5 043e 5ca2 8fbd f9dc 953e
00000190: e596 89c0 708a afbc 6045 64c0 74aa 7c3f
000001a0: cbbe 143c 159f 5040 e4fc 7f3e d878 fa3d
000001b0: 428a d33f e645 92c0 6636 1f3f 2619 6d3e
000001c0: 12a1 a43f 6f48 003f e54f bb3e e323 823e
000001d0: 8051 263e 9067 b7bd ad3b a23e 0a71 9d3e
000001e0: 180d aa3e 4e93 2ac0 0441 213f e1be 03bf
000001f0: 62db a93f 4843 9e3e c590 27bf b360 9c3f
0.34960133 -1.776703 2.2636247 1.8217258 -1.0958172 -2.1445813 -0.06671013 -1.9702195
-1.099881 -0.08848141 -0.067356005 -0.073356524 -0.079786 -1.2661673 -0.32821146 -1.5807105
0.27047786 -1.7357358 1.8173429 -0.38108742 -1.4090388 -1.1146852 -2.1051893 2.8106763
-1.7178067 -0.082117915 -1.535495 -0.060575366 0.45331877 3.9389558 -0.07434687 -1.6815457
0.68616015 0.45171034 -0.070874006 0.17277643 4.1852837 -0.10297625 2.118909 -1.1619978
-0.377568 -0.4406622 0.38882685 -1.3084525 -1.1996893 3.463012 0.026665846 0.4383224
-1.9590275 -1.5253096 0.34533614 0.39451453 -2.059989 -0.050065756 0.22223176 0.28971663
-0.99342734 2.0386994 -0.04030524 0.1406754 -1.7276239 0.3629192 0.30615386 -1.1603767
-3.1129901 1.2626344 -3.6649692 -1.4808693 0.39543143 1.0083777 -0.053417236 0.28779292
0.019462977 -0.040234804 -0.02935353 -0.07265201 -0.11555427 0.21013813 4.26098 0.90410537
0.371141 1.207409 -3.1594563 0.7869716 0.3820284 0.77728164 0.032439772 -3.1518242
0.99983215 -0.12345928 0.85071605 -0.10485813 0.34012887 -4.066609 -0.120527 0.35049325
-3.106961 0.12959892 -0.070133895 0.2927015 -4.2996697 -0.021428317 -3.5667343 0.9869759
0.009078692 3.2597096 0.24998814 0.1223008 1.6526568 -4.5710325 0.6219238 0.23154125
1.2861655 0.50110525 0.36584392 0.25418004 0.16242027 -0.089553 0.31686154 0.30750304
0.33213115 -2.6652408 0.6298983 -0.51463133 1.3270075 0.30910707 -0.65455276 1.221701

exp_avg f4 [128, 5]
00000000: aab4 c038 f61b 9fb4 6feb 8f38 49f3 c538
00000010: db4c f137 a385 463b 2a19 9e3a c1fa 483b
00000020: f932 493b 2eba 043b f221 32b6 4762 a5b7
00000030: 6d58 89b6 0c40 16b6 364f bbb8 5b8c 7e38
00000040: cecf 5439 989b dc38 593a 8638 be5f 7a3a
00000050: 4bbd 15bb 6cd0 22ba 2c62 17bb 787a 16bb
00000060: 279e 8fba 8097 9d33 aa84 e435 110c 8e33
00000070: 1624 7233 44e3 bd35 0371 6034 e1f5 4735
00000080: c4f6 1435 8b57 3a34 6526 8635 b55b ec3c
00000090: 3094 4a3b 68ac ee3c 2115 ee3c ff48 0e3c
000000a0: 9a05 a4ba 5722 ccb9 b367 a8ba f36d a5ba
000000b0: a403 41ba 2562 34b7 a406 8db8 f2f8 64b7
000000c0: bad6 1db7 85d1 e5b8 6982 a4bb 6f1f 6839
000000d0: 2397 a6bb 5090 a5bb 8f23 e3ba eeab 0c36
000000e0: 159b 0e37 8127 3636 f7c1 f435 b035 8636
000000f0: 142f 3437 6c70 8436 4800 3e37 a134 2e37
00000100: 7244 ad37 1fe4 d53a e739 0a3a 5a90 d63a
00000110: f01d d63a 2e3e 0a3a c443 1237 46c1 0238
00000120: aaca 2337 e9f6 0137 dd08 3538 ff75 4139
00000130: a6ba 0239 fd4d 3939 eb99 4539 a7f4 3539
00000140: 7eb5 573b 69ac 2a3b e602 5e3b 0951 583b
00000150: 4bf3 963b 22ea 07ba 4c02 3db9 c1f9 09ba
00000160: 9d44 07ba b22b e7b9 893b 85b7 2387 9aba
00000170: 4da4 50b8 0180 b1b6 d1bb b2ba d856 a8b5
00000180: 1ee1 21b7 0857 dcb5 e190 a9b5 3ec7 78b6
00000190: 5ff2 a8b5 5e26 97b5 f875 dfb5 ca3a cbb5
000001a0: 9d8f 70b4 ffed 713b 06f0 063a ec71 743b
000001b0: 068e 723b b870 5d3a 7df8 6fb8 c068 03b9
000001c0: 3ed1 85b8 7983 58b8 8c4c acb9 0852 263a
000001d0: 2833 243a a45a 273a 3ee5 273a 9f15 873a
000001e0: 43dc 0eb6 d1b3 10b9 65c5 31b6 2626 56b5
000001f0: f6e8 17b9 7b11 0bb6 4a1b 52b6 ad64 30b6
00000200: 6cae 02b6 0865 98b6 fb74 78ba b76e 74b9
00000210: 9670 80ba 9b8b 78ba 0597 31ba 63a7 5037
00000220: 4e69 c435 74ab 5537 3792 4e37 333e 8d35
00000230: b7eb a738 7219 4f39 bccb 1739 60d1 b238
00000240: 71d7 a03a eb3f 093a eb74 e839 c4b1 0c3a
00000250: d2b9 093a c597 8139 1008 19bb d670 efb9
00000260: e2d8 1abb 88f5 19bb f3c5 8cba b3a0 00ba
00000270: 4a57 e5b8 8dcf 01ba 0f5d 00ba 2372 89b9
00000280: 3e48 cc36 6a0e 4b36 4cc3 da36 23f2 cc36
00000290: 3a1e 6336 a8ef ddba 9410 09ba f132 e2ba
000002a0: 2f86 dfba 60e6 7eba feec 1037 ff2d 9236
000002b0: d77f 2237 e14e 0a37 f2a5 9336 3c6b d83c
000002c0: d36e f33b 40df dc3c 629c da3c b406 6b3c
000002d0: 9ed7 1934 7c56 a434 6b2e 0c34 08f1 8534
000002e0: d66a d4b4 18ef 093b 8cd9 54b9 6415 0b3b
000002f0: 5566 0a3b d0a2 8739 0bef 10b9 1734 94b9
00000300: ec9c 27b9 7638 0fb9 a0e0 0fba 06f6 5eb8
00000310: 01b4 00b9 8a1b 2db9 1f4f 62b8 0a4e dbb9
00000320: 689c 9038 b035 bc39 d977 b738 dd21 9738
00000330: ce3b bc39 b757 6937 a4aa 8b36 29c5 6637
00000340: 7794 6837 992f f236 79b2 da3a b2fd 753a
00000350: 740c dc3a 0a81 db3a 7261 363a 011b a5ba
00000360: 3271 e138 7a60 aaba 99f7 a5ba 2ee9 9fba
00000370: ea1f 5e37 d3c4 2736 1694 6737 7a21 5737
00000380: cf1c 6c36 3b20 e539 5f34 3e3a 028e ec39
00000390: f6d7 d739 dbd2 203a b4a9 a335 c238 01b4
000003a0: 6ca0 bd35 3269 a735 bf16 ab36 0bdb fcb9
000003b0: 2c43 83b9 5c5d fdb9 83b5 fcb9 df2a a3b9
000003c0: dddb a136 ccaa 9135 4062 b136 02dc a336
000003d0: 1054 2b36 957d fa39 2784 75b8 de4f ff39
000003e0: 5cdb f939 3f5e 4038 0b9c 85b9 a5d1 a937
000003f0: 8990 8bb9 84bb 86b9 cbb4 47b9 c244 803b
9.188925e-05 -2.9636402e-07 6.862624e-05 9.4390074e-05 2.8765227e-05 0.0030292056 0.0012061943 0.003066704
0.0030700548 0.0020252573 -2.6543826e-06 -1.9715297e-05 -4.0932123e-06 -2.2389022e-06 -8.931609e-05 6.0689035e-05
0.00020295309 0.00010519399 6.400486e-05 0.000955101 -0.0022848423 -0.0006210867 -0.0023099286 -0.002296118
-0.0010957167 7.33844e-08 1.7025934e-06 6.614585e-08 5.6377836e-08 1.414774e-06 2.0902739e-07 7.449108e-07
5.549339e-07 1.7354448e-07 9.994952e-07 0.028852323 0.003091108 0.029134944 0.02906281 0.008684396
-0.0012513876 -0.00038935497 -0.0012848288 -0.0012621268 -0.0007362908 -1.0751687e-05 -6.724641e-05 -1.3647821e-05
-9.407924e-06 -0.00010958597 -0.005020429 0.00022136954 -0.005083935 -0.005052604 -0.0017329323 2.0961702e-06
8.499967e-06 2.7143108e-06 1.8235868e-06 3.9997612e-06 1.0739797e-05 3.946994e-06 1.1324948e-05 1.0383462e-05
2.065508e-05 0.0016318596 0.00052729103 0.0016369924 0.0016335826 0.0005273548 8.718056e-06 3.1174415e-05
9.7627435e-06 7.746487e-06 4.3162017e-05 0.00018449871 0.00012467298 0.00017672028 0.00018844723 0.00017352645
0.0032914574 0.0026042706 0.003387624 0.0033007285 0.0046066395 -0.000518473 -0.000180253 -0.00052633515
-0.00051600655 -0.0004409231 -1.5882559e-05 -0.0011789541 -4.974408e-05 -5.2899127e-06 -0.0013636296 -1.254225e-06
-9.648762e-06 -1.6416607e-06 -1.2633647e-06 -3.7070854e-06 -1.2587515e-06 -1.1261543e-06 -1.6649128e-06 -1.5141788e-06
-2.2403988e-07 0.0036915538 0.00051474606 0.0037299348 0.0037010922 0.00084472774 -5.7213463e-05 -0.00012532156
-6.3809086e-05 -5.1620857e-05 -0.00032863428 0.0006344621 0.00062637264 0.0006384051 0.0006404704 0.0010306126
-2.1287858e-06 -0.00013799897 -2.6489954e-06 -7.9776726e-07 -0.00014487267 -2.072279e-06 -3.1308323e-06 -2.6284645e-06
-1.9473036e-06 -4.5417146e-06 -0.00094778807 -0.00023310898 -0.0009799178 -0.0009481252 -0.0006774518 1.2436739e-05
1.4633786e-06 1.2735709e-05 1.23126e-05 1.0523421e-06 8.007086e-05 0.00019750537 0.00014476379 8.5267005e-05
0.0012271238 0.000523566 0.000443376 0.00053670653 0.00052538246 0.00024717874 -0.0023350753 -0.00045669702
-0.0023627807 -0.0023492295 -0.0010740146 -0.00049067585 -0.0001093583 -0.0004951887 -0.00048966793 -0.00026215715
6.088084e-06 3.0257747e-06 6.519642e-06 6.107862e-06 3.384323e-06 -0.0016932385 -0.00052286056 -0.0017257613
-0.001705354 -0.00097236596 8.638248e-06 4.3564937e-06 9.6857175e-06 8.243806e-06 4.40026e-06 0.02641832
0.0074289828 0.026961923 0.026685897 0.01434486 1.4327676e-07 3.0610306e-07 1.3055403e-07 2.4948554e-07
-3.956581e-07 0.0021047052 -0.00020298938 0.0021222467 0.0021118124 0.0002587051 -0.0001382196 -0.0002826757
-0.00015984819 -0.00013658576 -0.0005488489 -5.315805e-05 -0.00012274088 -0.00016508825 -5.3956286e-05 -0.0004182908
6.895588e-05 0.00035898155 8.748443e-05 7.2065486e-05 0.00035902712 1.3908305e-05 4.162388e-06 1.3754973e-05
1.3862845e-05 7.217703e-06 0.0016685269 0.0009383812 0.0016788379 0.0016746831 0.00069572695 -0.0012596549
0.0001074992 -0.0012998723 -0.0012662291 -0.001220023 1.3239662e-05 2.4999506e-06 1.3803152e-05 1.2822793e-05
3.518351e-06 0.00043702297 0.00072557287 0.00045119232 0.000411689 0.00061349355 1.2193836e-06 -1.203471e-07
1.4128286e-06 1.2473085e-06 5.098845e-06 -0.00048228385 -0.00025036314 -0.0004832548 -0.00048200422 -0.00031121724
4.8237694e-06 1.085305e-06 5.286449e-06 4.883391e-06 2.5529916e-06 0.00047777282 -5.853563e-05 0.00048696896
0.00047656416 4.586414e-05 -0.00025483998 2.0243993e-05 -0.00026619833 -0.00025698182 -0.0001904547 0.0039144466

exp_avg_sq f4 [128, 5]
00000000: 1327 6f33 8d5b 4c33 9b90 7133 f305 6f33
00000010: 6966 4133 b5e4 bb38 5a76 f637 57d5 bb38
00000020: 1426 bb38 25e9 2738 5e57 6a2e ea8f fe33
00000030: 1a6c 922f 56e0 712e 411c 2b34 4361 9c33
00000040: aaaa e436 fe0e b833 2441 9a33 6ab8 a437
00000050: ab1f 1f38 17a9 a836 8004 1f38 dbc9 1e38
00000060: 303f 1437 2fb4 c92b e7ab 892f d065 ce2b
00000070: 2341 ca2b 6e78 462d 2980 d62a 59b9 232d
00000080: 6647 172b 1582 d82a 6df0 0f2d bdc1 043c
00000090: adc6 a73a 62b0 043c a495 043c a299 6a3a
000000a0: bac6 da37 794b 2837 a3b0 da37 0a37 da37
000000b0: 6d1d bf36 01db 9c30 5b2e a134 8eef e330
000000c0: 9ac3 9d30 b6a7 8d34 0c6e 2c3a 82f1 7439
000000d0: 855a 2c3a d440 2c3a 245b 1e38 5d3c 892f
000000e0: 966c 9c31 d9bd 892f 5639 892f 34da 2a2f
000000f0: fe39 ce30 6713 1330 ae15 ce30 a09a cd30
00000100: 03fc 9031 5af0 f137 6fb7 9e37 25a3 f137
00000110: 8bbd f137 f172 ac35 83fc 5d30 acb3 6a33
00000120: 37fe 6130 89c2 5e30 2691 2733 ecaa 7136
00000130: c754 a336 49a4 7136 8e7d 7136 1036 7335
00000140: c593 9938 1ccf e838 1ee1 9938 626a 9838
00000150: d698 6a39 313b 3836 ead4 a536 9dc0 3736
00000160: b818 3836 2f28 1b36 86cd 9231 897e ad38
00000170: ffbc 9033 1bf2 b831 fb2f 0438 b156 022e
00000180: 8533 2231 d492 0c2e 5a47 012e 55a8 872f
00000190: 1520 7d2f ff4e d830 b9b2 7d2f 0a3b 7d2f
000001a0: 5642 0c2c 702c 4a39 771c 9c38 adf5 4939
000001b0: 5e10 4a39 0698 6c36 a211 e732 878d 4c35
000001c0: 5680 e732 d008 e832 4886 aa35 5f65 5436
000001d0: f3f0 9136 253f 5536 faf0 5236 b53f f436
000001e0: 9451 4d2e d6c1 af35 4548 eb2f b364 8d2e
000001f0: 8ed5 f734 b22e 8f2d e258 e62f b8e6 972d
00000200: aeaf 8e2d 9077 9f2f 79cd 3c37 6102 b436
00000210: b59f 3c37 3a4c 3c37 7c9f 6a36 23d5 0c31
00000220: 2660 0d30 d3b3 0c31 dbb4 0c31 2829 bd2c
00000230: becb de33 a150 fa36 032c 0334 931f db33
00000240: 4c62 f437 71ca 3536 15d2 c536 22ca 3536
00000250: 1341 3536 864a 0e36 310a 9f38 8319 d337
00000260: a2f6 9e38 17c5 9e38 0948 5237 bbc1 7236
00000270: 651f fc35 a572 7236 917e 7236 801e 1c35
00000280: 5a97 e32f 8f77 eb2f 3c73 e32f 054b e32f
00000290: ca4d 8c2e 7b9c 2138 b4fe 7137 ec8b 2138
000002a0: 8039 2138 cfe5 1537 7375 c930 2be7 b230
000002b0: 6884 c930 3522 c930 4c6e f12e 5299 e73b
000002c0: 45c6 1a3b 6b67 e73b 8def e63b ff49 e13a
000002d0: cfef 142b 85e1 bc2d aefc 182b 0610 262b
000002e0: c06a 912c aeba ef38 bf8a 7538 818b ef38
000002f0: 0f8a ef38 1497 8b34 898c 6f37 3328 d437
00000300: bd94 6f37 f559 6f37 55da d136 537d 8033
00000310: 16a1 fe34 46d0 af33 e6e6 7933 65d5 1836
00000320: 2b79 8733 a0ee aa36 48fe 8c33 db92 8633
00000330: e1b9 0f36 5d6d 9330 6a7f db2f 5063 9330
00000340: 7f22 9330 29af f52f 6227 1938 dde4 3f38
00000350: 6121 1938 05df 1838 e175 1d37 20fe d638
00000360: a7ee 9338 27d4 d638 12c4 d638 e596 a537
00000370: f8a7 9930 4088 912f b09c 9930 2b98 9930
00000380: 590e a22e cbd0 0136 6ac7 ea37 5cee 0136
00000390: bd9e 0136 01bd 8636 610a 232e b24f e12d
000003a0: ec91 242e 4235 212e f4cc c92f 1eec 5936
000003b0: 0edc d636 619d 5936 8aab 5936 2012 b735
000003c0: e3cd 8b2f 21d8 c82e 1017 8c2f 2cee 8a2f
000003d0: 0ed0 c92f de80 6437 0808 4b37 4c61 6437
000003e0: 7a51 6437 a876 d331 9893 f434 b745 2533
000003f0: 7469 f434 3c44 f434 109e 0935 b6e8 0239
5.568206e-08 4.7580716e-08 5.6243703e-08 5.5651935e-08 4.5029456e-08 8.959455e-05 2.9380597e-05 8.9565925e-05
8.9239475e-05 4.0033035e-05 5.3283038e-11 1.18539745e-07 2.6634056e-10 5.4996306e-11 1.5935895e-07 7.282008e-08
6.8147974e-06 8.570895e-08 7.183033e-08 1.9636198e-05 3.7938047e-05 5.026475e-06 3.7912745e-05 3.7858128e-05
8.836199e-06 1.433192e-12 2.50423e-10 1.4665439e-12 1.4371042e-12 1.1281738e-11 3.8102965e-13 9.306633e-12
5.374506e-13 3.845957e-13 8.181994e-12 0.008102831 0.0012800299 0.008098694 0.008092318 0.00089492847
2.6080164e-05 1.0031153e-05 2.6069878e-05 2.6013255e-05 5.695669e-06 1.1412739e-09 3.0022315e-07 1.6584509e-09
1.1478847e-09 2.6385322e-07 0.00065776776 0.00023359622 0.0006574768 0.00065709394 3.7755017e-05 2.4963046e-10
4.5525423e-09 2.505505e-10 2.4960894e-10 1.5538931e-10 1.5004955e-09 5.350586e-10 1.4994634e-09 1.495966e-09
4.219602e-09 2.8841361e-05 1.8920486e-05 2.8805409e-05 2.8817702e-05 1.2848451e-06 8.075817e-10 5.464578e-08
8.2215784e-10 8.103958e-10 3.901473e-08 3.6011288e-06 4.867648e-06 3.6007425e-06 3.598488e-06 9.0603226e-07
7.323133e-05 0.00011101199 7.33754e-05 7.26774e-05 0.00022372915 2.745259e-06 4.9421697e-06 2.738124e-06
2.7432525e-06 2.312019e-06 4.2725246e-09 8.272852e-05 6.739901e-08 5.382629e-09 3.1515938e-05 2.9635575e-11
2.3603388e-09 3.1962724e-11 2.9394577e-11 2.4675964e-10 2.3021614e-10 1.573852e-09 2.3073711e-10 2.3031191e-10
1.993202e-12 0.00019280775 7.443962e-05 0.00019260375 0.00019270318 3.525523e-06 2.6899958e-08 7.620187e-07
2.69503e-08 2.7012362e-08 1.2705068e-06 3.1649467e-06 4.349387e-06 3.1776228e-06 3.1432705e-06 7.279183e-06
4.668406e-11 1.309493e-06 4.2797602e-10 6.4298254e-11 4.6162717e-07 1.6277955e-11 4.189991e-10 1.7269172e-11
1.6221548e-11 2.9006886e-10 1.1253514e-05 5.364695e-06 1.1242858e-05 1.1223421e-05 3.496155e-06 2.0493836e-09
5.1432136e-10 2.04749e-09 2.0475486e-09 5.3762723e-12 1.0374741e-07 7.459967e-06 1.2216337e-07 1.02037255e-07
2.913284e-05 2.7088938e-06 5.8955143e-06 2.7088759e-06 2.700898e-06 2.1203027e-06 7.583609e-05 2.516504e-05
7.579966e-05 7.570738e-05 1.2533747e-05 3.6173576e-06 1.87846e-06 3.6127542e-06 3.6134481e-06 5.815891e-07
4.13986e-10 4.2831202e-10 4.1372938e-10 4.1344364e-10 6.380281e-11 3.8531125e-05 1.4424022e-05 3.8515704e-05
3.8438942e-05 8.934599e-06 1.4658056e-09 1.3016906e-09 1.4662307e-09 1.4634397e-09 1.0979004e-10 0.0070678378
0.0023616713 0.007061889 0.0070475996 0.001718819 5.2912964e-13 2.1473276e-11 5.435191e-13 5.8997284e-13
4.1329995e-12 0.0001143118 5.854177e-05 0.00011422393 0.000114221235 2.600069e-07 1.4278231e-05 2.5291089e-05
1.4280141e-05 1.4266455e-05 6.2541026e-06 5.983261e-08 4.7428392e-07 8.186957e-08 5.818483e-08 2.2773977e-06
6.308468e-08 5.0941744e-06 6.5655115e-08 6.266574e-08 2.1416856e-06 1.0726741e-09 3.99264e-10 1.0723884e-09
1.0705462e-09 4.46897e-10 3.651472e-05 4.5751094e-05 3.650913e-05 3.6447327e-05 9.385375e-06 0.0001025165
7.053959e-05 0.00010243832 0.00010240836 1.9739799e-05 1.1179955e-09 2.6472158e-10 1.1176748e-09 1.1175464e-09
7.369456e-11 1.9344031e-06 2.7987833e-05 1.9361241e-06 1.9314896e-06 4.015514e-06 3.7071127e-11 2.561493e-11
3.7418887e-11 3.6654464e-11 3.6707315e-10 3.2472958e-06 6.4033147e-06 3.2427126e-06 3.2435369e-06 1.3639838e-06
2.5430244e-10 9.133339e-11 2.5482239e-10 2.5271285e-10 3.670952e-10 1.3619863e-05 1.2101613e-05 1.3612513e-05
1.3608829e-05 6.154398e-09 4.555593e-07 3.848046e-08 4.552527e-07 4.549819e-07 5.126649e-07 0.00012484458

exp_avg f4 [64, 128]
00000000: 7892 4937 ccc0 30b1 aa9e 0a34 1ba5 13b5
00000010: 2a01 a8b6 0000 0000 0000 0000 1ad1 c031
00000020: c8ac 2a38 5d0c a334 604e 8735 0000 0000
00000030: 0000 0000 5154 91b8 0400 0000 833d a637
00000040: 5e98 d7b6 892c 5138 1792 a536 0400 0000
00000050: 0000 0000 7a9a e9b7 f236 c839 6e28 1f37
00000060: d036 7b36 0000 0000 a33e 0836 0000 0000
00000070: 9f71 56b4 8a30 5eb8 1ed5 35b5 b952 aeb8
00000080: 0000 0000 ec73 dfb6 0000 0000 e6b6 b1b4
00000090: 0000 0000 0d40 f731 f3c4 8d37 286e a137
000000a0: 1c84 1139 0000 0000 98da b4b7 fde1 3d37
000000b0: 0000 0000 0e50 a4af 0000 0000 afdb 7cb8
000000c0: 0000 0000 9aba a8b7 510b 6b39 ddc5 2732
000000d0: 0000 0000 ad9c 5938 66f4 3533 f869 9b36
000000e0: 02b2 8f2f 195d aeb7 0000 0000 224c 2239
000000f0: 37df 2832 0000 0000 2b7f 02b7 f863 6031
00000100: d4c3 1438 5ed1 00b2 9006 fe31 f800 8037
00000110: 0000 0000 0000 0000 0000 0000 1af8 5637
00000120: b9d8 d832 0400 0080 0400 0000 c8a3 87b7
00000130: e82a ec31 1d46 5536 8b71 0738 0400 0080
00000140: 0838 5c36 0a7b a535 74b1 8bb8 0400 0080
00000150: 0400 0000 0c26 7037 63e4 08b4 e36c 8d33
00000160: 0000 0000 7354 3d38 0000 0000 d671 0eb7
00000170: 0000 0000 0000 0000 ba58 e9b0 72b8 2bb2
00000180: 54fb 09b8 35a5 73b8 0400 0080 826e 7239
00000190: 59d3 11b8 0b93 d037 0000 0000 916c 71b6
000001a0: c598 84b8 cb54 afb8 0000 0000 2e81 d935
000001b0: 8613 7ab7 0000 0000 cc1e 97b1 1ee3 1c39
000001c0: 0000 0000 6bcf 45b5 be54 c039 b7ee 0939
000001d0: 0000 0000 0000 0000 e0a7 db38 0400 0000
000001e0: 31fe 00b7 c539 b333 13fb cbb5 6347 39b7
000001f0: 6844 7cb4 0000 0000 ede3 77b6 6803 15b1
00000200: 51d9 9cb9 550e 9732 e3fc 48b6 ecc6 1eba
00000210: 47c9 6ab7 0000 0000 0000 0000 7b03 3435
00000220: b16b 6cb9 87ba 12b6 6cd8 2eb8 0000 0000
00000230: 0000 0000 c7da 2738 0400 0080 5e89 0eb9
00000240: 6a84 43b8 1473 5cba b097 8737 0400 0080
00000250: 0000 0000 8eba 8637 cf85 a1ba a688 75b8
00000260: df89 df36 0000 0000 2b0b 20ba 0000 0000
00000270: d68e 1fba c42b c3b8 f37c 06b8 3718 a5b8
00000280: 0000 0000 7361 a3b8 0000 0000 433b f435
00000290: 0000 0000 00d1 2034 d103 0bb9 617d 70b7
000002a0: 38fa 59ba 0000 0000 17bb 96b9 0acb 22b9
000002b0: 0000 0000 2164 e532 0000 0000 4d36 b0b9
000002c0: 0000 0000 4195 1c37 2eb2 41ba b92a 5334
000002d0: 0000 0000 1f99 49ba ed67 8134 e875 5fb8
000002e0: 6b1f 5430 5628 dc36 0000 0000 c91b 89ba
000002f0: 4734 2133 0000 0000 c1f1 e8b9 5710 ab32
00000300: f0f9 8bb9 3f76 5132 8246 b034 e2b3 02b7
00000310: 0000 0000 0000 0000 0000 0000 fe59 54b9
00000320: 3b24 cf32 0400 0000 0400 0080 79ab 0c37
00000330: f1cd 8534 2a47 eeb9 40c1 f1b8 0400 0000
00000340: d0ac a536 6a96 a335 3149 1738 0400 0000
00000350: 0400 0080 ab34 bcb9 d2fa ab34 65ba 8134
00000360: 0000 0000 cf04 69b9 0000 0000 81bb 83b8
00000370: 0000 0000 0000 0000 26b3 9734 7a6b 9032
00000380: 3e68 ac36 5dfa 5cb9 0400 0000 3eff 8fba
00000390: 9bca 99b9 218a 07ba 0000 0000 c036 4bb8
000003a0: 8ab5 50b9 9030 b6b9 0000 0000 9e14 67b7
000003b0: 2c50 9fb8 0000 0000 b27a 5f33 3810 53ba
000003c0: 0000 0000 54a2 5537 a706 a0ba 2077 4bba
000003d0: 0000 0000 0000 0000 631c 31ba 0400 0000
000003e0: ddb2 23b8 04be 3434 1a1e 21b8 6eb3 b7b7
000003f0: 3485 ec34 0000 0000 c8a0 d7b9 ce17 0e31
1.2014636e-05 -2.5720963e-09 1.2909973e-07 -5.500203e-07 -5.0069257e-06 0.0 0.0 5.6117075e-09
4.0692074e-05 3.037011e-07 1.0081094e-06 0.0 0.0 -6.929844e-05 6e-45 1.9817386e-05
-6.425237e-06 4.987096e-05 4.9343903e-06 6e-45 0.0 -2.7847698e-05 0.0003818791 9.486552e-06
3.743382e-06 0.0 2.0302039e-06 0.0 -1.9971638e-07 -5.297413e-05 -6.773788e-07 -8.312375e-05
0.0 -6.659413e-06 0.0 -3.3101895e-07 0.0 7.195928e-09 1.6900221e-05 1.9243991e-05
0.00013877492 0.0 -2.1559463e-05 1.1317895e-05 0.0 -2.9888308e-10 0.0 -6.028608e-05
0.0 -2.0114054e-05 0.00022415562 9.765668e-09 0.0 5.1882747e-05 4.2364626e-08 4.6316964e-06
2.613803e-10 -2.0785768e-05 0.0 0.00015477886 9.82964e-09 0.0 -7.778212e-06 3.2653116e-09
3.546833e-05 -7.498185e-09 7.393119e-09 1.525924e-05 0.0 0.0 0.0 1.281316e-05
2.5244264e-08 -6e-45 6e-45 -1.616952e-05 6.873382e-09 3.1780285e-06 3.2292253e-05 -6e-45
3.281517e-06 1.2329267e-06 -6.66109e-05 -6e-45 6e-45 1.4313973e-05 -1.2749074e-07 6.5856305e-08
0.0 4.513976e-05 0.0 -8.490364e-06 0.0 0.0 -1.6978199e-09 -9.995448e-09
-3.2897413e-05 -5.8089576e-05 -6e-45 0.00023120086 -3.4767527e-05 2.4864004e-05 0.0 -3.5974992e-06
-6.322706e-05 -8.360444e-05 0.0 1.6205356e-06 -1.4905707e-05 0.0 -4.3981796e-09 0.00014961927
0.0 -7.369005e-07 0.00036684232 0.00013154266 0.0 0.0 0.00010474003 6e-45
-7.688578e-06 8.345845e-08 -1.5197751e-06 -1.104348e-05 -2.3494215e-07 0.0 -3.6938538e-06 -2.168429e-09
-0.00029916552 1.7585231e-08 -2.9949522e-06 -0.00060568633 -1.399435e-05 0.0 0.0 6.706029e-07
-0.00022546832 -2.1864269e-06 -4.168639e-05 0.0 0.0 4.0019655e-05 -6e-45 -0.00013593349
-4.6614943e-05 -0.0008409482 1.6163889e-05 -6e-45 0.0 1.6060916e-05 -0.0012323203 -5.8539816e-05
6.661968e-06 0.0 -0.000610518 0.0 -0.0006086653 -9.3064766e-05 -3.2064458e-05 -7.8723235e-05
0.0 -7.790597e-05 0.0 1.8196664e-06 0.0 1.4977195e-07 -0.00013257495 -1.4334307e-05
-0.00083151786 0.0 -0.00028749622 -0.00015525162 0.0 2.6704642e-08 0.0 -0.00033609793
0.0 9.3330755e-06 -0.00073889166 1.9666449e-07 0.0 -0.00076903583 2.4103738e-07 -5.3277152e-05
7.71698e-10 6.5612066e-06 0.0 -0.0010460551 3.753328e-08 0.0 -0.0004443061 1.991445e-08
-0.00026698364 1.2192287e-08 3.2833856e-07 -7.790486e-06 0.0 0.0 0.0 -0.0002025142
2.4114447e-08 6e-45 -6e-45 8.384574e-06 2.4923023e-07 -0.0004544792 -0.00011527771 6e-45
4.937501e-06 1.2188223e-06 3.606937e-05 6e-45 -6e-45 -0.00035897395 3.2033728e-07 2.4163742e-07
0.0 -0.00022222403 0.0 -6.281492e-05 0.0 0.0 2.825629e-07 1.6812681e-08
5.138135e-06 -0.00021074103 6e-45 -0.0010986102 -0.00029333387 -0.0005170424 0.0 -4.844996e-05
-0.00019904054 -0.00034749927 0.0 -1.3773473e-05 -7.596644e-05 0.0 5.2032824e-08 -0.0008051428
0.0 1.2733584e-05 -0.0012209014 -0.00077615865 0.0 0.0 -0.0006756244 6e-45
-3.9028808e-05 1.6832934e-07 -3.8413426e-05 -2.1898853e-05 4.4055344e-07 0.0 -0.00041127787 2.067725e-09

exp_avg_sq f4 [64, 128]
00000000: 4ebc 9134 2526 2027 3755 402e 8f0d 9235
00000010: 0b56 eb31 0000 0000 0000 0000 5039 e92a
00000020: 1f1c 0f34 cb83 882b 17bf ae30 0000 0000
00000030: 0000 0000 1fef 4434 f401 0000 7916 a432
00000040: 6116 b032 4e4f 9b35 7556 8632 f401 0000
00000050: 0000 0000 bac4 4233 248a 4136 ed81 9632
00000060: dec4 9431 0000 0000 fb26 9235 0000 0000
00000070: f808 9235 2051 4034 32c1 5430 bead 5634
00000080: 0000 0000 cd4b 4933 0000 0000 ce44 662d
00000090: 0000 0000 baba 8026 22c0 9632 7580 0d30
000000a0: ba49 c635 0000 0000 e94a 4e35 add7 0d31
000000b0: 0000 0000 8a3f e227 0000 0000 ad7b 4735
000000c0: 0000 0000 92ea a532 7f5f 2736 0c8f 0e2a
000000d0: 0000 0000 246d a035 3b07 d229 c860 bd30
000000e0: 0460 da24 b34f a132 0000 0000 b895 ba35
000000f0: d457 b527 0000 0000 444a 8535 ab10 1f26
00000100: 9371 5533 571f 4729 d87f 2a28 4aa0 f232
00000110: 0000 0000 0000 0000 0000 0000 4db1 8833
00000120: cadd c027 f401 0000 f401 0000 f2ee 1832
00000130: 68f0 f328 0092 ed34 9bf0 ba32 f401 0000
00000140: b1ff ad31 012c d52c ee90 4334 2c04 6800
00000150: f401 0000 d3bc 9435 d7b4 9f2b 1ed0 0630
00000160: 0000 0000 4902 1734 0000 0000 b27b 2733
00000170: 0000 0000 0000 0000 66d0 f928 814d 5a28
00000180: 59f6 0733 abe5 6634 f401 0000 661f e635
00000190: 1bc1 7134 f819 8f35 0000 0000 6cc0 d231
000001a0: a56e 6534 bcb2 5b35 0000 0000 09cf a131
000001b0: 1639 8233 0000 0000 3102 2e29 c90a cb35
000001c0: 0000 0000 bcc6 9c31 8563 4136 cced c335
000001d0: 0000 0000 0000 0000 3fea c235 9f94 a501
000001e0: d7d6 4833 7a0e 9a29 eed8 ff30 8ecc 4833
000001f0: 807a 9b2b 0000 0000 26d5 be34 5b27 6024
00000200: 9743 4735 777b 1727 aa2a 5b30 c1cc 4936
00000210: 437f 6833 0000 0000 0000 0000 c25e e82b
00000220: 98ea f634 6183 d92d 2227 0633 0000 0000
00000230: 0000 0000 6e7f 1434 f401 0000 2f3b 6a34
00000240: 5dad 9833 06e0 6d36 1d82 f833 f401 0000
00000250: 0000 0000 43a8 bd32 8cbf f536 6a4e 2b34
00000260: 06cd 8632 0000 0000 30a3 4936 0000 0000
00000270: 7cc6 4936 72bb 6e34 68f9 d932 02ff c434
00000280: 0000 0000 e9d0 5334 0000 0000 ac19 dd2d
00000290: 0000 0000 493d cd29 1610 5d34 3381 0331
000002a0: bac9 8336 0000 0000 f065 8f35 0292 e133
000002b0: 0000 0000 4782 2d28 0000 0000 3242 ad35
000002c0: 0000 0000 a1f6 aa31 4a9e a136 5f13 052b
000002d0: 0000 0000 2cb8 7736 f388 6b2a 8e52 3433
000002e0: e187 e824 a542 0831 0000 0000 772a b236
000002f0: e0a7 c627 0000 0000 4d30 0f36 b9d0 1b27
00000300: c9c5 ce34 dc5a 3029 3353 282b f650 f532
00000310: 0000 0000 0000 0000 0000 0000 5684 9c34
00000320: d0cc 1f27 f401 0000 f401 0000 a2cc 4a33
00000330: 7c24 802b 3bbe 0636 d632 fa33 f401 0000
00000340: 1a1c f632 6b8e 962e 01a6 1634 d3e9 5901
00000350: 7e03 0000 27f3 fb35 5ecd 962c 5109 0c2d
00000360: 0000 0000 6369 f734 0000 0000 049c 8333
00000370: 0000 0000 0000 0000 0a31 2b2b ffdf 8028
00000380: 35e1 b933 8678 3735 f401 0000 16a8 bf36
00000390: 3222 4635 e379 2d36 0000 0000 cba0 8733
000003a0: 1ccc 3335 717c e635 0000 0000 bc08 7a32
000003b0: ffb4 0534 0000 0000 7fab df29 b714 8b36
000003c0: 0000 0000 e7c7 b832 e736 f536 e9e5 8036
000003d0: 0000 0000 0000 0000 4946 7e36 1d6c b702
000003e0: 627b c533 fea8 122a 0e2a 2a33 fbe0 c333
000003f0: 7cb2 a82c 0000 0000 2cbc bd35 5eb7 8926
2.7145364e-07 2.2225139e-15 4.373143e-11 1.0881794e-06 6.849182e-09 0.0 0.0 4.1428883e-13
1.3328143e-07 9.699961e-13 1.2714477e-09 0.0 0.0 1.8340914e-07 7e-43 1.9102332e-08
2.0499273e-08 1.1571481e-06 1.563897e-08 7e-43 0.0 4.5348067e-08 2.883965e-06 1.7521382e-08
4.329748e-09 0.0 1.0889192e-06 0.0 1.0880458e-06 1.7910907e-07 7.73997e-10 1.999351e-07
0.0 4.68679e-08 0.0 1.3089264e-11 0.0 8.932397e-16 1.754967e-08 5.147805e-10
1.4773607e-06 0.0 7.684999e-07 2.0640798e-09 0.0 6.279649e-15 0.0 7.431325e-07
0.0 1.9315198e-08 2.4940525e-06 1.2661763e-13 0.0 1.1952693e-06 9.327128e-14 1.3779067e-09
9.4705086e-17 1.877911e-08 0.0 1.3901654e-06 5.0332815e-15 0.0 9.930886e-07 5.5186796e-16
4.9696222e-08 4.421406e-14 9.464617e-15 2.8245399e-08 0.0 0.0 0.0 6.365244e-08
5.353117e-15 7e-43 7e-43 8.901894e-09 2.7082679e-14 4.425092e-07 2.1762665e-08 7e-43
5.0640314e-09 6.0587095e-12 1.8213515e-07 9.552388e-39 7e-43 1.1081814e-06 1.1347823e-12 4.904467e-10
0.0 1.4063802e-07 0.0 3.8995218e-08 0.0 0.0 2.7734932e-14 1.2118237e-14
3.165619e-08 2.1503972e-07 7e-43 1.7145474e-06 2.2515125e-07 1.0661888e-06 0.0 6.1336802e-09
2.1367539e-07 8.184395e-07 0.0 4.709254e-09 6.0639806e-08 0.0 3.8637662e-14 1.5127818e-06
0.0 4.562791e-09 2.881717e-06 1.459784e-06 0.0 0.0 1.4522301e-06 6.082469e-38
4.6761524e-08 6.841485e-14 1.8615347e-09 4.675217e-08 1.1047413e-12 0.0 3.5545344e-07 4.8605593e-17
7.4231633e-07 2.102239e-15 7.9732365e-10 3.0070516e-06 5.4132453e-08 0.0 0.0 1.6510892e-12
4.599176e-07 2.4728388e-11 3.1234897e-08 0.0 0.0 1.3829933e-07 7e-43 2.1814479e-07
7.109586e-08 3.544615e-06 1.15720674e-07 7e-43 0.0 2.2079012e-08 7.323868e-06 1.5954143e-07
1.5692887e-08 0.0 3.0046322e-06 0.0 3.0066867e-06 2.223367e-07 2.5375542e-08 3.6693388e-07
0.0 1.9726907e-07 0.0 2.5136192e-11 0.0 9.11446e-14 2.0588081e-07 1.913645e-09
3.9275883e-06 0.0 1.0683998e-06 1.05039376e-07 0.0 9.6316786e-15 0.0 1.290877e-06
0.0 4.9756896e-09 4.816601e-06 4.7277975e-13 0.0 3.691307e-06 2.0919707e-13 4.19846e-08
1.0084415e-16 1.9828488e-09 0.0 5.309757e-06 5.513805e-15 0.0 2.1336775e-06 2.162372e-15
3.8514398e-07 3.915866e-14 5.980105e-13 2.855857e-08 0.0 0.0 0.0 2.915355e-07
2.2176712e-15 7e-43 7e-43 4.7217902e-08 9.105073e-13 2.0078285e-06 1.1650779e-07 7e-43
2.8650948e-08 6.846509e-11 1.403023e-07 4.0024366e-38 1.253e-42 1.8771724e-06 4.2860568e-12 7.960147e-12
0.0 4.6084014e-07 0.0 6.128542e-08 0.0 0.0 6.081946e-13 1.4307998e-14
8.655699e-08 6.8348197e-07 7e-43 5.7118114e-06 7.381051e-07 2.5849956e-06 0.0 6.3156754e-08
6.6979715e-07 1.7172553e-06 0.0 1.4553901e-08 1.2452436e-07 0.0 9.932939e-14 4.1449343e-06
0.0 2.1511324e-08 7.3079605e-06 3.8414623e-06 0.0 0.0 3.788986e-06 2.6951487e-37
9.1959706e-08 1.3026036e-13 3.9619458e-08 9.121319e-08 4.794663e-12 0.0 1.4136363e-06 9.555986e-16

exp_avg f4 [2, 64]
00000000: a069 2c37 c1be 9b38 e3a0 b937 f938 9739
00000010: 5dcf d739 a05d c238 0000 0000 3ec9 9538
00000020: 6c92 ee39 0000 0000 0000 0000 0000 0000
00000030: 0000 0000 5ca8 6638 1e04 2639 f775 d638
00000040: e15c aa3a defe 5e38 a991 1f38 4a87 613a
00000050: b5fe b937 0846 3239 eacf b538 0be7 dbb6
00000060: eebd 0c39 0000 0000 9031 e638 0000 0000
00000070: 032e a53a f92e 1b32 0000 0000 4311 a938
00000080: 8096 1939 3eb7 993a 0000 0000 d1e4 af3a
00000090: 4bf2 95b6 0000 0000 cda4 aa37 2781 2f39
000000a0: 445d 0a37 c512 e638 7de3 9e3a ad63 fe37
000000b0: 6b49 bf38 f6d5 a8b5 3036 973a b979 9e3a
000000c0: ecfc 8c38 a164 b438 70eb b23a 7bac 9d3a
000000d0: 01ef 6738 0000 0000 c5ff b03a 0cb2 b03a
000000e0: 4b33 cd39 0c73 8936 91c1 9a3a 086d 793a
000000f0: 6465 c138 0e1e a63a 8797 483a f26f e738
00000100: 01e6 a637 ea00 d337 329b 87b7 3677 afb8
00000110: 6bc6 67b8 a471 90b7 0000 0000 35f2 51b7
00000120: 2822 5cb9 0000 0000 0000 0000 0000 0000
00000130: 0000 0000 bded 40b8 7c2b 96b6 843b 9037
00000140: f4a6 94ba 1ead 86b6 a5fb f4b7 5316 3eb9
00000150: e2d8 3ab7 8d16 91b7 f418 9ab8 98ac a537
00000160: abe0 1db8 0000 0000 e36f 97b7 0000 0000
00000170: 60a4 92ba ad93 f3b6 0000 0000 e6bb 8bb8
00000180: 72c4 94b8 8be8 88ba 0000 0000 89ea 97ba
00000190: 74df 5bb6 0000 0000 b5ad a437 186f b2b7
000001a0: 1dff 1238 fe45 54b7 de03 8aba 19b8 0cb8
000001b0: 37ac acb6 f840 1a37 0f4e d4b9 8f9e 8aba
000001c0: 21a5 ddb6 1201 fbb7 b06b 98ba f159 8aba
000001d0: 9467 91b8 0000 0000 f304 99ba 408a 97ba
000001e0: 7990 8fb9 750e 5637 c5ee d2b9 6385 79ba
000001f0: 839c 02b7 d850 92ba 94f5 61ba 4624 96b7
1.0276592e-05 7.4265066e-05 2.2128637e-05 0.00028843412 0.00041162493 9.26808e-05 0.0 7.142358e-05
0.0004550399 0.0 0.0 0.0 0.0 5.499307e-05 0.00015832527 0.00010226288
0.0012997651 5.3166288e-05 3.804421e-05 0.00086032285 2.2172326e-05 0.00017001492 8.6694796e-05 -6.5536055e-06
0.00013422195 0.0 0.000109764864 0.0 0.0012602214 9.032868e-09 0.0 8.061763e-05
0.00014647283 0.0011727584 0.0 0.0013419633 -4.4687526e-06 0.0 2.034232e-05 0.00016737414
8.247156e-06 0.00010970751 0.001212224 3.0325575e-05 9.121265e-05 -1.2579246e-06 0.0011536535 0.001209072
6.7228306e-05 8.6018124e-05 0.0013650488 0.0012029553 5.529728e-05 0.0 0.001350396 0.0013480796
0.00039138863 4.0963114e-06 0.0011806955 0.0009514843 9.2218426e-05 0.0012673752 0.0007651974 0.0001103579
1.9895846e-05 2.5153586e-05 -1.6165523e-05 -8.366855e-05 -5.5259483e-05 -1.7219056e-05 0.0 -1.2513764e-05
-0.00020993559 0.0 0.0 0.0 0.0 -4.599778e-05 -4.4754106e-06 1.7193852e-05
-0.001134126 -4.0136647e-06 -2.9204248e-05 -0.00018128128 -1.1136961e-05 -1.7295848e-05 -7.34794e-05 1.9749903e-05
-3.7640955e-05 0.0 -1.8052704e-05 0.0 -0.0011187904 -7.259156e-06 0.0 -6.663035e-05
-7.093781e-05 -0.001044528 0.0 -0.0011590283 -3.276361e-06 0.0 1.9631212e-05 -2.1270986e-05
3.5046705e-05 -1.2652481e-05 -0.0010529717 -3.3550055e-05 -5.146048e-06 9.194242e-06 -0.0004049395 -0.0010575819
-6.605537e-06 -2.992203e-05 -0.0011628773 -0.0010555369 -6.933432e-05 0.0 -0.0011674449 -0.0011561587
-0.00027382726 1.275876e-05 -0.00040232218 -0.00095184724 -7.7850445e-06 -0.0011163009 -0.0008619663 -1.7898285e-05

exp_avg_sq f4 [2, 64]
00000000: 49d7 9031 7e5f d933 80d5 7532 0f50 0735
00000010: 469d 9435 bc12 4233 0000 0000 0cbf ce32
00000020: 8997 9a35 0000 0000 0000 0000 0000 0000
00000030: 0000 0000 c5e9 d633 aefa c534 195e 2634
00000040: f3c2 0d37 c378 ab32 69a3 3833 e0f5 7536
00000050: 6642 b933 283a 3e34 b393 8a33 31a2 5e2f
00000060: d72e 9e33 0000 0000 bbdf bc33 0000 0000
00000070: 51f3 0d37 5fc8 892f 0000 0000 f987 b732
00000080: 78df 2534 f1d0 f536 0000 0000 faab 0737
00000090: b059 b42f 0000 0000 2264 5c33 0cee 0534
000000a0: 5a58 9833 51aa 9934 e8c0 0437 9cac 8a33
000000b0: d890 8b33 8be6 8a2e 2aed db36 68a7 ff36
000000c0: 4a3e b832 7f28 9533 50da 0637 94e2 0037
000000d0: eb04 ac32 0000 0000 db4c 0737 0b37 0837
000000e0: e5bf aa35 aa03 2334 06bd ea36 d4e2 a436
000000f0: d686 3a33 d08a 0d37 2086 9d36 ccb7 4434
00000100: 1bc6 9732 48f7 2a32 0012 dc32 ccd7 ac34
00000110: 7b8a 2734 f733 0131 0000 0000 5bda b631
00000120: 90fc 3e35 0000 0000 0000 0000 0000 0000
00000130: 0000 0000 77f8 dd33 5a8b 8c2f aaa3 db32
00000140: 7185 f036 22b7 8530 72ec 9433 13cb 9e35
00000150: 01f2 0b33 ba09 2b33 ed19 e732 b7d6 a831
00000160: b603 4932 0000 0000 7183 a832 0000 0000
00000170: 4d00 f236 47d9 2032 0000 0000 5de5 2c32
00000180: aa35 5034 b7cd e736 0000 0000 a20a de36
00000190: fe40 9531 0000 0000 c56a 8734 2706 ac32
000001a0: dd31 d634 04c0 092f 58de ec36 aca5 1033
000001b0: 41d2 3830 79e6 5e30 4564 2d36 33ec ea36
000001c0: 4187 6830 9c7c 1233 04a1 e136 c8a6 ea36
000001d0: 8e5f 8132 0000 0000 3ec6 e236 634c e636
000001e0: bf20 7235 cec8 eb34 4ec5 4536 6553 d736
000001f0: db96 6b30 c3f0 ef36 beb0 ce36 522f a932
4.2154267e-09 1.012222e-07 1.4309421e-08 5.040792e-07 1.1072632e-06 4.5186184e-08 0.0 2.4068434e-08
1.1517997e-06 0.0 0.0 0.0 0.0 1.0007674e-07 3.6876503e-07 1.5494187e-07
8.449645e-06 1.9961936e-08 4.298946e-08 3.6650963e-06 8.6268116e-08 1.7716286e-07 6.452992e-08 2.0248404e-10
7.3659685e-08 0.0 8.7951285e-08 0.0 8.460906e-06 2.5062527e-10 0.0 2.1365837e-08
1.544812e-07 7.325893e-06 0.0 8.0866685e-06 3.2805536e-10 0.0 5.1313812e-08 1.2473191e-07
7.0941226e-08 2.8622392e-07 7.912728e-06 6.457523e-08 6.499039e-08 6.316466e-11 6.554318e-06 7.619081e-06
2.1448745e-08 6.9457194e-08 8.037852e-06 7.682149e-06 2.0025672e-08 0.0 8.064521e-06 8.119047e-06
1.2721836e-06 1.5181891e-07 6.9957487e-06 4.913987e-06 4.3429132e-08 8.436575e-06 4.694579e-06 1.8320787e-07
1.7668802e-08 9.951528e-09 2.5619556e-08 3.219451e-07 1.5603466e-07 1.880151e-09 0.0 5.3217213e-09
7.114804e-07 0.0 0.0 0.0 0.0 1.033631e-07 2.5564867e-10 2.5569381e-08
7.168092e-06 9.729073e-10 6.934796e-08 1.183102e-06 3.258356e-08 3.9822886e-08 2.6903729e-08 4.9138538e-09
1.1700584e-08 0.0 1.9617547e-08 0.0 7.212197e-06 9.362629e-09 0.0 1.0063869e-08
1.9391032e-07 6.908285e-06 0.0 6.6173534e-06 4.3438595e-09 0.0 2.5223395e-07 2.0026233e-08
3.9896887e-07 1.2528295e-10 7.0592323e-06 3.367829e-08 6.72376e-10 8.109065e-10 2.5837373e-06 7.0012406e-06
8.4593316e-10 3.4106606e-08 6.724267e-06 6.9931593e-06 1.506103e-08 0.0 6.7584033e-06 6.8634267e-06
9.0199677e-07 4.3918266e-07 2.9470134e-06 6.4172077e-06 8.570688e-10 7.1507834e-06 6.159854e-06 1.9695708e-08
